speech_audio_acc.pth (torch, 118574 bytes, 26 tensors)

conv1.weight f4 [32, 1, 80]
-0.17362483 -0.10000742 0.15570535 0.29026935 0.12210709 -0.23300296 -0.3881604 -0.1496872
0.17672074 0.44197628 0.1827604 -0.13731544 -0.30710083 -0.1613904 0.16020873 0.17685376
0.07031876 -0.14034413 -0.13400504 0.08513103 0.19159685 0.22033003 -0.12948938 -0.38873714
-0.40182734 0.02816772 0.48918176 0.5828139 0.2256095 -0.3804295 -0.7525066 -0.44962832
0.22805335 0.7351778 0.6523602 0.07003284 -0.5556917 -0.6005838 -0.24321747 0.24607171
0.5265446 0.30689436 -0.053054594 -0.2732904 -0.27492356 -0.16224767 -0.017539872 0.23409206
0.32143712 0.16956387 -0.105796374 -0.37723807 -0.39203262 0.012505825 0.41636065 0.5295271
0.08261909 -0.4183217 -0.56600857 -0.1620042 0.3457866 0.46518695 0.25956103 -0.12095906
-0.26934224 -0.30544594 -0.06928182 0.13123538 0.24425958 0.23371689 0.064065844 -0.14248748
-0.28115153 -0.19947307 0.05470736 0.19214876 0.18661681 -0.01235067 -0.13939066 -0.07419862
-0.27566445 -0.29841888 -0.032543425 -0.11251353 0.014881422 0.09055618 0.0620211 0.10148231
0.2302705 0.42818004 0.343703 0.297736 0.18193498 0.11844532 -0.01750756 -0.24077235
-0.17024995 -0.42815736 -0.47007927 -0.50563264 -0.4462292 -0.25606844 -0.25928044 -0.03029608
0.19113909 0.14979333 0.30558902 0.44085526 0.41839814 0.27467158 0.1610983 0.23622032
0.20637149 0.03043123 -0.04429845 -0.18648386 -0.33013317 -0.48789626 -0.33003527 -0.056664176
-0.07892391 -0.12962449 -0.007104664 0.16046944 0.16142844 -0.020349557 0.21645755 0.17331375
0.025833342 0.06923143 0.060631014 0.0313921 -0.014274344 0.07931481 0.10339557 -0.08179967
0.050131857 0.029357348 0.055889204 0.08757585 0.02511338 -0.04779617 -0.038170785 -0.028001636
-0.031004451 -0.23684175 -0.22620903 -0.25242415 -0.08871893 -0.066366896 -0.15686461 -0.08078515
-0.002113237 -0.07506398 0.02020068 0.17848508 0.1514354 0.09805208 0.13251843 0.052365568
-0.2610983 -0.20848894 -0.2376293 -0.05336099 0.11899515 0.19926831 0.15514347 -0.11394752
-0.18112074 -0.17568268 -0.15610543 -0.06868025 -0.02212485 0.041482646 0.1202591 0.015764028
-0.11156042 -0.17137595 -0.24044973 -0.06065923 -0.09222508 0.14186364 0.15729381 0.29056844
0.077876605 -0.12239153 -0.24120253 -0.201414 -0.02483647 0.17895831 0.21999077 0.03566415
-0.124537185 -0.20426315 -0.17410246 -0.24139076 -0.096977375 0.035961643 0.2906787 0.38705233
0.2257366 0.07731024 -0.16504043 -0.16518265 -0.27437383 -0.19531605 -0.1174431 -0.037660148
-0.07638164 -0.09192706 -0.32081714 -0.22541615 -0.2038954 -0.049598753 0.11437464 0.16297893
0.124589324 -0.017355824 -0.13182524 -0.10737334 -0.1316274 0.016142977 0.06124017 0.19530609
0.1083536 0.11366344 0.027501676 0.049106926 0.09457237 0.1486349 -0.035116557 -0.15850918
-0.050258007 -0.005031692 0.10372475 -0.043274127 0.054021787 -0.010243572 0.17403065 0.13779119
0.30835113 0.33308092 0.2207893 0.16632697 0.15533261 0.105020605 -0.005347556 0.0062721646
0.11114379 0.23237403 0.062524535 0.03420939 0.039680246 -0.044752955 -0.14218351 -0.19658874
00000000: b5ca 31be b1d0 ccbd 3971 1f3e 2f9e 943e
00000010: 4813 fa3d 5498 6ebe f6bc c6be 9a47 19be
00000020: 48f6 343e b74a e23e 8b25 3b3e 6b9c 0cbe
00000030: 523c 9dbe 8643 25be c20d 243e 2719 353e
00000040: 4803 903d 5fb6 0fbe 9e38 09be 2d59 ae3d
00000050: f731 443e 329e 613e dd98 04be 8e08 c7be
00000060: 50bc cdbe febf e63c 0876 fa3e 4b33 153f
00000070: 2d06 673e a8c7 c2be 46a4 40bf af35 e6be
00000080: d186 693e 9d34 3c3f 1401 273f 616d 8f3d
00000090: d041 0ebf dcbf 19bf 000e 79be 39fa 7b3e
000000a0: a0cb 063f 4221 9d3e c64f 59bd b8ec 8bbe
000000b0: c8c2 8cbe 4124 26be c7af 8fbc d4b5 6f3e
000000c0: 6893 a43e 27a2 2d3e c5ab d8bd 5925 c1be
000000d0: 80b8 c8be 3be5 4c3c 392d d53e 178f 073f
000000e0: 3334 a93d 432e d6be f0e5 10bf 6ee4 25be
000000f0: f10a b13e fc2c ee3e 2fe5 843e 62b9 f7bd
00000100: 3ae7 89be 6963 9cbe a0e3 8dbd 9162 063e
00000110: 2f1f 7a3e 7b53 6f3e f434 833d 3de8 11be
00000120: 18f3 8fbe ab42 4cbe d314 603d a5c2 443e
00000130: 7a18 3f3e 775a 4abc 6dbc 0ebe 72f5 97bd
00000140: e423 8dbe 5cca 98be 414c 05bd 7e6d e6bd
00000150: 35d1 733c 8575 b93d d609 7e3d f5d5 cf3d
00000160: 08cc 6b3e 6a3a db3e d7f9 af3e da70 983e
00000170: 2a4d 3a3e 7693 f23d 046c 8fbc 078d 76be
00000180: 0156 2ebe 7137 dbbe 3bae f0be 2471 01bf
00000190: 2778 e4be 671b 83be 68c0 84be 7c2f f8bc
000001a0: f7b9 433e 6c63 193e 2a76 9c3e c8b7 e13e
000001b0: 4838 d63e c1a1 8c3e f4f6 243e bde3 713e
000001c0: 0c53 533e ea4a f93c 4b72 35bd a0f5 3ebe
000001d0: 3707 a9be 8acd f9be 62fa a8be b218 68bd
000001e0: dca2 a1bd 48bc 04be 3ece e8bb 1a52 243e
000001f0: 7f4d 253e 1db4 a6bc 0ca7 5d3e 2979 313e
00000200: 72a0 d33c 35c9 8d3d 3a58 783d 0195 003d
00000210: f0de 69bc ce6f a23d 0ec1 d33d 9686 a7bd
00000220: 1057 4d3d d27e f03c 14ec 643d f85a b33d
00000230: 93ba cd3c ebc5 43bd f858 1cbd b063 e5bc
00000240: 0cfd fdbc a586 72be 57a3 67be bd3d 81be
00000250: 45b2 b5bd 5eeb 87bd 1ea1 20be af72 a5bd
00000260: 3c7e 0abb 25bb 99bd e57b a53c cbc4 363e
00000270: e211 1b3e 87cf c83d e9b2 073e 477d 563d
00000280: adae 85be 207e 55be 1855 73be 0e91 5abd
00000290: bbb3 f33d fe0c 4c3e eedd 1e3e 515d e9bd
000002a0: b777 39be 29e6 33be 1ada 1fbe 3ba8 8cbd
000002b0: 2c3f b5bc b5e9 293d 674a f63d 9023 813c
000002c0: ca79 e4bd 2d7d 2fbe 7438 76be d075 78bd
000002d0: 81e0 bcbd b444 113e a111 213e 63c5 943e
000002e0: c57d 9f3d 69a8 fabd ccfd 76be 793f 4ebe
000002f0: da75 cbbc d940 373e 4345 613e 9214 123d
00000300: 5a0d ffbd 5c2a 51be ea47 32be 242f 77be
00000310: 139c c6bd 844c 133d d7d3 943e b92b c63e
00000320: 7f27 673e d554 9e3d 5c00 29be a425 29be
00000330: ba7a 8cbe ee00 48be 0286 f0bd 8741 1abd
00000340: fa6d 9cbd 4144 bcbd 2542 a4be 7ed3 66be
00000350: f5c9 50be 1028 4bbd 403d ea3d f3e3 263e
00000360: b028 ff3d cd2d 8ebc 32fd 06be 8ee6 dbbd
00000370: 55c9 06be 473e 843c f9d6 7a3d 52fe 473e
00000380: 7ee8 dd3d 61c8 e83d 324b e13c 5824 493d
00000390: 29af c13d bf33 183e 61d6 0fbd 3b50 22be
000003a0: 57db 4dbd e4e0 a4bb a46d d43d 3640 31bd
000003b0: f345 5d3d a8d4 27bc 1735 323e 2219 0d3e
000003c0: 33e0 9d3e 9589 aa3e 9716 623e 9e51 2a3e
000003d0: 830f 1f3e 0b15 d73d 8d3a afbb bb86 cd3b
000003e0: 5b9f e33d 75f3 6d3e dd0c 803d 251f 0c3d
000003f0: c187 223d e04e 37bd 8e98 11be 8f4e 49be

conv1.bias f4 [32]
0.01225115 0.0028043601 0.00017452361 0.002785648 3.300971e-06 0.0013926285 0.0029003068 0.0048807524
0.0025209975 0.0006607838 -0.00021341337 0.03182705 -0.003302556 0.018752823 -0.0018714531 0.0015826642
-0.0048878086 8.7557164e-05 0.0022941986 -0.0016667068 -0.0030745268 -0.0011746392 0.0041132076 -0.00080900826
-0.003879346 -0.0022054573 0.0013666246 0.002629841 0.0045448807 -0.0030480537 -0.0007942765 -0.0032495207
00000000: 0cb9 483c 5bc9 373b 5300 3739 6b8f 363b
00000010: 4086 5d36 dc88 b63a 1313 3e3b b8ee 9f3b
00000020: 5237 253b 7338 2d3a b7c7 5fb9 155d 023d
00000030: b26f 58bb 859f 993c 8c4b f5ba 6671 cf3a
00000040: e929 a0bb e59e b738 445a 163b 6675 daba
00000050: 007e 49bb 5af6 99ba 16c8 863b a013 54ba
00000060: a03c 7ebb 6f89 10bb 5020 b33a 6959 2c3b
00000070: 39ed 943b dbc1 47bb fe36 50ba e9f5 54bb

bn1.weight f4 [32]
1.5682317 0.8326255 0.4297491 0.61494714 0.505201 0.6626395 0.96887684 0.4489541
0.6910382 1.0835075 0.41297957 1.5226656 0.8282309 1.6564943 1.0610067 1.2674346
1.2124732 0.48668775 1.1951574 0.716078 0.8506742 0.86019975 1.0128533 0.5213977
1.1278514 0.66996974 0.48045945 1.0035243 1.3642743 0.5191784 0.33087543 0.5465701
00000000: d1bb c83f f226 553f 1308 dc3e 2d6d 1d3f
00000010: da54 013f bea2 293f 5008 783f 50dd e53e
00000020: e1e7 303f 60b0 8a3f 0f72 d33e b5e6 c23f
00000030: f106 543f 0108 d43f 11cf 873f 4c3b a23f
00000040: 5232 9b3f 232f f93e ebfa 983f e350 373f
00000050: c9c5 593f 0d36 5c3f 2da5 813f 527a 053f
00000060: 6f5d 903f 2383 2b3f c8fe f53e 7c73 803f
00000070: 8aa0 ae3f e0e8 043f 8168 a93e 05ec 0b3f

bn1.bias f4 [32]
-0.00362116 -0.0028086975 -0.44494504 0.18346506 -0.51179314 0.08876732 -0.0111060655 0.1833951
0.23800349 -0.03497214 -0.042845514 0.005117232 0.10444413 0.09732831 0.0151895275 -0.01330685
0.46211335 -0.29153425 0.006324799 0.058997367 -0.026491927 0.021151312 0.009732378 0.030774157
-0.04942525 0.024795093 0.05722617 0.115996376 0.0283949 0.08612685 -0.070887476 0.17317979
00000000: fc50 6dbb 2012 38bb d6cf e3be 44de 3b3e
00000010: e004 03bf a4cb b53d 37f6 35bc edcb 3b3e
00000020: 30b7 733e f23e 0fbd c77e 2fbd 74ae a73b
00000030: cee6 d53d 1154 c73d 7fdd 783c f904 5abc
00000040: 1f9a ec3e fa43 95be 4240 cf3b 39a7 713d
00000050: 9905 d9bc 8445 ad3c 8d74 1f3c 161a fc3c
00000060: 2272 4abd 141f cb3c fd65 6a3d 828f ed3d
00000070: 6c9c e83c 4663 b03d 742d 91bd 0b56 313e

bn1.running_mean f4 [32]
0.00079384627 0.0005427578 -0.00013572081 0.0019064839 3.9188126e-07 -0.0001616964 0.0014480392 0.000424042
0.0008414153 0.0004889044 0.0005130303 0.013622156 0.001494336 0.014890407 0.000537349 -0.0003568663
0.0026139964 0.0004019416 0.0016914562 -0.00036915217 -1.7968705e-06 0.0013058442 -0.00031649967 -0.0001101846
-0.0040633976 -0.0007392211 0.00044955604 0.0011351521 0.0020177658 -0.0012412295 -0.00014470961 -0.0010697517
00000000: 1f1a 503a dc47 0e3a 4750 0eb9 fce2 f93a
00000010: c063 d234 0c8d 29b9 22cc bd3a f451 de39
00000020: 6d92 5c3a d229 003a e17c 063a 772f 5f3c
00000030: 98dd c33a e5f6 733c e2dc 0c3a c919 bbb9
00000040: 954f 2b3b b0bb d239 dab3 dd3a c48a c1b9
00000050: 002c f1b5 dc28 ab3a deef a5b9 e812 e7b8
00000060: 4026 85bb 4ac8 41ba 64b2 eb39 62c9 943a
00000070: 7e3c 043b c0b0 a2ba 31bd 17b9 e936 8cba

bn1.running_var f4 [32]
0.049915258 0.102703825 0.028865954 0.07199059 0.058546163 0.06921221 0.11345325 0.06880043
0.060272016 0.15979435 0.049539495 0.0074267182 0.088425614 0.022744386 0.15993208 0.17621224
0.09139474 0.05720064 0.14533953 0.08202863 0.108253375 0.08719812 0.10388767 0.046965413
0.05885958 0.07360689 0.06045804 0.100371554 0.06841069 0.046041198 0.06394601 0.07523172
00000000: f173 4c3d 6256 d23d 4b78 ec3c cd6f 933d
00000010: 1ace 6f3d 22bf 8d3d 2d5a e83d 3de7 8c3d
00000020: cadf 763d 21a1 233e ede9 4a3d d45b f33b
00000030: 7d18 b53d 6f52 ba3c 3cc5 233e fb70 343e
00000040: 2a2d bb3d 384b 6a3d e3d3 143e a0fe a73d
00000050: f2b3 dd3d ee94 b23d 0fc3 d43d ce5e 403d
00000060: be16 713d 36bf 963d daa2 773d 9a8f cd3d
00000070: e71a 8c3d b295 3c3d 20f6 823d 1713 9a3d

conv2.weight f4 [32, 32, 3]
0.44790515 0.56661975 0.49955022 0.31001604 0.12743305 0.023848813 0.013319828 -0.032630533
0.01749636 -0.039167162 -0.09486928 -0.056829672 0.064237416 -0.032701787 0.022454282 0.03355746
0.03428905 0.037002154 0.24697664 0.12780601 0.0012757891 -0.010285458 -0.07157309 -0.09142013
0.042946566 0.02980899 0.020936612 0.31366822 0.18395074 0.23680225 0.023226855 0.094843
-0.05913952 0.30515614 0.2537015 0.34656906 0.053900022 -0.16730145 -0.13718104 0.16838175
0.18091598 0.23891743 0.13935997 0.13390069 0.1731762 0.016377639 0.116073385 0.097454585
0.19574708 0.10201999 0.1453929 0.3188816 0.081354514 0.21917348 -0.008618411 0.079895444
0.09450352 -0.0018605953 -0.17270184 -0.04946922 0.13754417 -0.021909608 -0.012001177 -0.005348746
-0.20724168 -0.24909331 0.026419496 0.06789776 0.12147455 0.056103818 -0.049413692 -0.03219342
0.07604673 -0.051262632 -0.16528487 0.14641713 0.08217518 0.13711992 -0.068794504 -0.11179519
-0.046939112 -0.08268724 -0.01485752 0.15787905 -0.17310746 -0.27841684 -0.068215795 0.041877154
0.02924437 0.08435872 -0.031564962 0.0460567 0.052639917 0.1633044 -0.12684791 -0.19847627
-0.0889144 -0.2045056 -0.104126096 -0.16309297 -0.40661645 -0.030292407 0.0633134 -0.30505592
-0.19820356 -0.17666994 0.07408931 -0.23284197 -0.09029789 -0.22960037 -0.32084394 0.06586944
-0.2385615 -0.26129332 -0.686166 -0.3356415 -0.18019998 0.12278785 -0.14076234 -0.11993477
0.028668674 -0.17196667 -0.1781559 -0.16905 -0.11665663 0.29389307 -0.20530024 -0.10115543
0.16937825 -0.11533316 -0.08567018 0.06758467 -0.05717614 -0.12778637 -0.24662803 0.023797993
0.1139309 0.0913348 -0.16545832 -0.077331156 -0.26055166 0.241385 0.13197286 -0.06110231
0.5918414 0.13932571 0.08697111 -0.076287456 -0.0169433 0.0022266223 0.5677508 -0.09170966
0.36265653 0.25597247 -0.025658285 -0.09067667 -0.040440552 -0.19762838 -0.16512132 -0.06857728
-0.12869573 -0.050464958 0.24188542 -0.17586309 0.38162357 -0.32401776 -0.16185789 -0.20053855
0.3450578 0.3141932 0.11313599 -0.34731668 -0.39346465 -0.2608781 -0.31767634 -0.18906851
-0.47863546 0.4438824 0.22033438 0.36525992 0.83245814 0.28330284 0.10569345 0.023938356
0.050803415 -0.22471942 -0.17493564 -0.1996401 -0.19524789 -0.360825 -0.21006174 -0.4329795
0.07065903 -0.075227894 0.061092347 0.039750043 -0.40392745 -0.45243707 0.20337972 0.054779552
0.039354816 0.2279204 -0.11454236 -0.29974723 0.2548442 0.26049185 0.08411958 0.12783189
-0.1575924 -0.23426987 -0.28818056 -0.6077331 -0.43187547 0.3683807 0.013727268 -0.046859164
0.31000623 0.0060696276 0.023923948 -0.27952552 -0.43477082 -0.33287913 0.22312799 0.07604506
0.39387086 0.008372637 0.12211875 0.13639358 0.44469 -0.24688752 -0.30341 0.082812116
-0.06448785 0.16162483 -0.5809109 -0.6473107 -0.64676535 -0.21486501 -0.3156564 -0.5472406
-0.060656574 -0.3088247 -0.19852762 0.16307141 -0.028775211 0.23681033 -0.22995417 -0.3698517
-0.08493561 0.39321476 0.23593909 -0.07726867 -0.055944532 -0.33837268 -0.14410754 0.5688925
00000000: d353 e53e fe0d 113f 0cc5 ff3e 6cba 9e3e
00000010: cf7d 023e 965e c33c 683b 5a3c 98a7 05bd
00000020: 8754 8f3c bf6d 20bd d34a c2bd 3bc6 68bd
00000030: e88e 833d 4ff2 05bd 0bf2 b73c 8c73 093d
00000040: ad72 0c3d 928f 173d 72e7 7c3e 94df 023e
00000050: 6138 a73a 5684 28bc ea94 92bd 7a3a bbbd
00000060: bde8 2f3d fc31 f43c 4283 ab3c 1f99 a03e
00000070: 955d 3c3e 4a7c 723e 3f46 be3c 0c3d c23d
00000080: 483c 72bd 6d3d 9c3e 2ae5 813e 8071 b13e
00000090: 45c6 5c3d 1251 2bbe 3079 0cbe 446c 2c3e
000000a0: 0a42 393e c5a6 743e 61b4 0e3e 431d 093e
000000b0: 1a55 313e 662a 863c e2b7 ed3d 4596 c73d
000000c0: ec71 483e dbef d03d e0e1 143e 7344 a33e
000000d0: 329d a63d 036f 603e 3c34 0dbc 39a0 a33d
000000e0: 108b c13d 38df f3ba c0d8 30be 3da0 4abd
000000f0: 61d8 0c3e c77b b3bc 96a0 44bc 8944 afbb
00000100: 2a37 54be 5112 7fbe b36d d83c fb0d 8b3d
00000110: a6c7 f83d 1ecd 653d 0366 4abd 3fdd 03bd
00000120: 63be 9b3d c4f8 51bd 7040 29be 5fee 153e
00000130: 764b a83d 2a69 0c3e 22e4 8cbd e0f4 e4bd
00000140: 3a43 40bd ed57 a9bd f56c 73bc 0cab 213e
00000150: 1543 31be a78c 8ebe b9b4 8bbd 6187 2b3d
00000160: e491 ef3c 44c4 ac3d 434a 01bd f3a5 3c3d
00000170: f49c 573d 4539 273e 6be4 01be 5d3d 4bbe
00000180: c118 b6bd ea69 51be 1040 d5bd d801 27be
00000190: 0830 d0be c827 f8bc 75aa 813d 4a30 9cbe
000001a0: e0f5 4abe f7e8 34be 23bc 973d 206e 6ebe
000001b0: 1aee b8bd 5c1c 6bbe a845 a4be 8fe6 863d
000001c0: 7749 74be 3dc8 85be 93a8 2fbf 34d9 abbe
000001d0: 5886 38be 3278 fb3d 0124 10be 5ca0 f5bd
000001e0: 91da ea3c 0818 30be 806e 36be 711b 2dbe
000001f0: ace9 eebd 2779 963e 3a3a 52be 942a cfbd
00000200: 7e71 2d3e cb33 ecbd d973 afbd d569 8a3d
00000210: 8731 6abd 6eda 02be 0f8c 7cbe 02f4 c23c
00000220: 9b54 e93d bd0d bb3d e86d 29be cc5f 9ebd
00000230: 0767 85be a12d 773e e523 073e 6a46 7abd
00000240: eb82 173f 66ab 0e3e e91d b23d 993c 9cbd
00000250: adcc 8abc 86ec 113b 1e58 113f 46d2 bbbd
00000260: 1eae b93e d30e 833e 5331 d2bc b1b4 b9bd
00000270: fea4 25bd 185f 4abe 9015 29be 3f72 8cbd
00000280: d0c8 03be 58b4 4ebd d0b0 773e 7415 34be
00000290: 2a64 c33e a8e5 a5be 13be 25be fa59 4dbe
000002a0: 6aab b03e eedd a03e d8b3 e73d 7ed3 b1be
000002b0: 3374 c9be d091 85be 79a6 a2be 2d9b 41be
000002c0: b50f f5be 8e44 e33e 569f 613e 5903 bb3e
000002d0: fa1b 553f 120d 913e cf75 d83d 5f1a c43c
000002e0: 3e17 503d d91c 66be 5422 33be 746e 4cbe
000002f0: 10ef 47be 0ebe b8be 6d1a 57be 7daf ddbe
00000300: aeb5 903d 1511 9abd f83b 7a3d f1d0 223d
00000310: 94cf cebe d5a5 e7be c642 503e 8660 603d
00000320: 8432 213d f763 693e 2f95 eabd 7878 99be
00000330: f07a 823e 305f 853e e346 ac3d 5de6 023e
00000340: e75f 21be 71e4 6fbe 678c 93be 6594 1bbf
00000350: c81e ddbe 659c bc3e 56e8 603c 65ef 3fbd
00000360: 23b9 9e3e bae3 c63b 28fc c33c f81d 8fbe
00000370: 489a debe 226f aabe aa7b 643e 83bd 9b3d
00000380: 71a9 c93e 632d 093c 6519 fa3d c2aa 0b3e
00000390: 68ae e33e 15d0 7cbe 8e58 9bbe 6699 a93d
000003a0: 3512 84bd fb80 253e 94b6 14bf 27b6 25bf
000003b0: 6a92 25bf 9305 5cbe b79d a1be f617 0cbf
000003c0: 0773 78bd 451e 9ebe d34a 4bbe 31fc 263e
000003d0: feb9 ebbc 687e 723e 1b79 6bbe 345d bdbe
000003e0: b9f2 adbd 7253 c93e 049a 713e 093f 9ebd
000003f0: 1826 65bd 2f3f adbe ed90 13be f0a2 113f

conv2.bias f4 [32]
0.00010806424 -0.00066320185 0.006290512 -1.2452947e-06 -0.00027673822 -0.00016830803 -0.004688412 -0.0050374204
-0.0011281971 0.0016510668 -0.0011658459 -0.00031087507 -0.0006423344 0.002137701 0.0006976454 -0.00054428494
-0.00068197626 0.00084028504 0.00056818756 -0.0003195496 0.0031827488 0.0006268718 -2.1125088e-05 0.0005873196
-0.0009870008 0.002948481 -0.0012308534 0.0011625619 -0.0009399516 0.0018315562 0.0016545999 -0.00063078845
00000000: 8ca0 e238 b9da 2dba a420 ce3b 0024 a7b5
00000010: 2d17 91b9 d87b 30b9 40a1 99bb f210 a5bb
00000020: 03e0 93ba 9c68 d83a 4ccf 98ba f2fc a2b9
00000030: 5562 28ba ac18 0c3b 31e2 363a 58ae 0eba
00000040: a7c6 32ba 9346 5c3a 6cf2 143a 3989 a7b9
00000050: aa95 503b a854 243a c835 b1b7 5af6 193a
00000060: 405e 81ba 4d3b 413b 9654 a1ba 1b61 983a
00000070: 1667 76ba d410 f03a 29df d83a 7f5b 25ba

bn2.weight f4 [32]
0.2962635 0.5018832 1.6754681 1.7752512 0.32817328 0.6893462 1.6166567 1.7430518
0.7829992 0.88673383 0.81508684 0.46943226 0.6231026 0.74633276 0.42752355 0.26645502
0.45600405 1.0238976 0.3666488 0.7089612 1.3512293 1.3305246 0.4595489 2.0414224
2.113105 1.3253084 1.0026647 0.67434436 1.3796074 1.388919 1.5195497 0.9911957
00000000: d9af 973e 6b7b 003f bd75 d63f 6e3b e33f
00000010: 5406 a83e fe78 303f 9bee ce3f 521c df3f
00000020: a372 483f fd00 633f 88a9 503f 6d59 f03e
00000030: a783 1f3f aa0f 3f3f 5ee4 da3e cb6c 883e
00000040: 5d79 e93e 140f 833f 64b9 bb3e 7b7e 353f
00000050: 15f5 ac3f a14e aa3f fe49 eb3e aaa6 0240
00000060: 1d3d 0740 b5a3 a93f 5157 803f d5a1 2c3f
00000070: fa96 b03f 19c8 b13f 9b80 c23f 00bf 7d3f

bn2.bias f4 [32]
0.093938455 0.2745798 -0.2816285 -0.15924852 0.15539762 0.33819515 0.14512938 -0.32444462
0.78579247 0.6223817 0.04569156 0.1696074 0.050120223 0.23123266 0.12360904 0.2628397
0.30995217 0.10034172 0.3545062 -0.15576705 0.10673951 -0.29277775 -0.67332625 -0.3660844
-0.5268626 -0.4580692 0.82775444 0.14664316 -0.44762686 -0.18549758 -0.14662118 0.40723288
00000000: ce62 c03d b995 8c3e 9c31 90be 0b12 23be
00000010: 8e20 1f3e ea27 ad3e cc9c 143e 9b1d a6be
00000020: b229 493f 6854 1f3f 1327 3b3d 90ad 2d3e
00000030: dd4a 4d3d 41c8 6c3e bd26 fd3d ed92 863e
00000040: 0db2 9e3e f67f cd3d d681 b53e 6681 1fbe
00000050: 3f9a da3d f7e6 95be 1c5f 2cbf 6a6f bbbe
00000060: 78e0 06bf 0c88 eabe b7e7 533f a029 163e
00000070: 592f e5be 14f3 3dbe dd23 16be d480 d03e

bn2.running_mean f4 [32]
2.3882189 -0.21708098 -2.9216137 -3.2951326 1.7822475 -0.14667551 -4.6047077 -2.542343
-2.968612 -3.2159631 -0.9674666 3.5656796 -0.30824786 0.46055898 -0.14512177 3.069817
0.75892186 -1.8526821 -0.098360434 -2.8076885 -2.041197 -3.0704584 4.339489 -5.1062026
-3.2659223 -3.2768674 -1.5627041 -0.42016184 -3.3757443 -3.0982254 -2.1692028 -1.8703357
00000000: 94d8 1840 7a4a 5ebe b8fb 3ac0 74e3 52c0
00000010: b020 e43f 1b32 16be c459 93c0 bfb5 22c0
00000020: bdfd 3dc0 57d2 4dc0 e4ab 77bf 1834 6440
00000030: aad2 9dbe 63ce eb3e cd9a 14be e277 4440
00000040: b448 423f b024 edbf 3271 c9bd 2bb1 33c0
00000050: f9a2 02c0 6482 44c0 18dd 8a40 0366 a3c0
00000060: df04 51c0 32b8 51c0 b006 c8bf 741f d7be
00000070: 320c 58c0 5349 46c0 38d4 0ac0 2967 efbf

bn2.running_var f4 [32]
31.273817 24.865553 40.716537 93.33566 17.17691 11.545855 107.97365 53.072678
43.55154 34.38649 25.396736 38.973183 11.605811 27.534187 7.0950866 26.740797
17.769697 36.276386 4.827596 21.28618 32.484783 43.160374 59.977703 130.6741
59.25862 26.97559 32.909008 13.236452 28.359964 26.04704 34.173077 24.807001
00000000: c730 fa41 a7ec c641 bcdd 2242 dcab ba42
00000010: 506a 8941 d2bb 3841 82f2 d742 6c4a 5442
00000020: c734 2e42 c48b 0942 842c cb41 8ae4 1b42
00000030: 67b1 3941 0446 dc41 f30a e340 27ed d541
00000040: 5728 8e41 051b 1142 ab7b 9a40 194a aa41
00000050: 6bf0 0142 39a4 2c42 2be9 6f42 92ac 0243
00000060: d408 6d42 02ce d741 d3a2 0342 82c8 5341
00000070: 35e1 e241 5760 d041 3bb1 0842 bd74 c641

conv3.weight f4 [64, 32, 3]
-0.14653748 0.0010073758 -0.21929863 -0.12904848 0.009417198 -0.0043209596 0.4861234 0.30132657
-0.40983438 0.519192 -0.21772313 -0.28752115 -0.20156303 -0.014607867 0.15180731 -0.11515142
-0.27764583 -0.16968521 -0.066131406 -0.02462725 -0.2107069 0.062987596 -0.8431444 -0.5721727
0.49531445 0.050124608 -0.41123867 0.22133094 0.21419941 -0.15637203 -0.18787958 0.08415784
0.09538617 -0.011477745 -0.06728158 -0.036462437 -0.11494261 -0.06000734 0.10282443 -0.35836166
0.005152303 -0.10115856 -0.09760704 -0.10121581 -0.050502297 -0.27680698 0.089761555 0.049914617
-0.25418568 -0.20098485 -0.09505309 -0.17468749 -0.11934901 -0.2105808 -0.0073831896 0.054000724
-0.1939486 -0.035947494 0.23367795 -0.090666264 0.44817868 -0.042352643 -0.23521319 0.0914715
0.251262 -0.17879249 -0.091700725 -0.16829966 -0.16513419 0.40229657 -0.14550598 -0.69492114
0.47461638 0.27250072 -0.45406485 0.41417617 0.6371632 -0.21789795 -0.13330768 -0.1340483
-0.058212504 -0.13322838 -0.008741054 -0.078873545 0.15810022 0.44539842 -0.040370133 0.16493304
-0.1176354 -0.0031375338 -0.3096359 0.10105937 -0.08820268 -0.24490364 -0.3020609 -0.025889102
-0.015935982 -0.04797102 -0.095746785 -0.007327124 -0.028141156 -0.21868715 0.17778839 0.12930535
-0.02204841 -0.1355169 -0.07047653 -0.16457072 -0.18395668 -0.2491134 -0.13756764 -0.20728935
0.022274872 -0.09263978 -0.1130949 -0.15146619 -0.2631335 -0.2357069 -0.1634326 0.6175718
0.13105644 -0.070505686 0.09851706 0.469546 0.19610418 0.18194182 -0.18534446 -0.23183954
0.06451721 -0.05493151 -0.101516254 0.036419895 -0.27841255 -0.22549644 -0.09202271 -0.2576261
-0.41159305 -0.30325073 -0.20924877 -0.08305573 0.13770053 -0.19437867 -0.04863116 0.0125541445
-0.001400647 0.052523863 0.032752037 0.07419569 -0.029753286 0.12726688 0.03213811 -0.11969579
-0.20402487 -0.2960374 -0.2841754 -0.15836567 0.02637404 0.1954018 0.1383484 0.014665279
0.16474669 -0.25854233 -0.13124709 -0.0961075 -0.11901628 -0.11730102 -0.21067479 0.3036062
0.17395929 0.10295724 -0.030828942 0.16344927 0.09621359 -0.12236833 -0.2513533 -0.34477186
0.23585553 -0.20529163 0.049305543 -0.18645866 0.18698953 0.041704025 -0.34556264 0.25635764
0.35628253 -0.19989578 -0.31234923 -0.30616668 0.10135721 -0.2143734 -0.2057903 0.26107073
-0.21539898 -0.18636891 -0.21667899 0.066977166 -0.1329468 -0.23702097 -0.12048729 -0.1659209
-0.38449958 -0.23046961 -0.23455593 -0.03379635 -0.12632984 -0.14901678 0.012005153 0.14489903
-0.16866165 -0.09535586 0.3278988 0.5052912 0.35540625 0.063880734 0.10676947 0.18908376
0.00020729331 -0.09288685 -0.11944764 -0.10023493 -0.2987425 -0.3526704 0.06080846 0.12193088
0.20336702 -0.16803966 -0.18328433 -0.08728051 -0.1745289 -0.049748264 -0.040915165 0.039232336
-0.036236227 -0.07618376 -0.30346015 -0.33707353 -0.2732096 -0.1949483 -0.14892055 -0.025890391
0.022433097 -0.19748965 -0.30607566 -0.18893906 -0.059330277 -0.05941102 -0.22187546 -0.18519086
-0.1409666 -0.10526212 -0.16259776 -0.18698263 0.035216898 -0.08482068 -0.22406414 -0.002915631
00000000: ec0d 16be ec09 843a d28f 60be 4925 04be
00000010: 974a 1a3c d696 8dbb 2be5 f83e 7a47 9a3e
00000020: d0d5 d1be c4e9 043f d0f2 5ebe f935 93be
00000030: 8a66 4ebe d655 6fbc 6073 1b3e 82d4 ebbd
00000040: 9827 8ebe f6c1 2dbe e76f 87bd 16bf c9bc
00000050: 8dc3 57be a4ff 803d 50d8 57bf e979 12bf
00000060: db99 fd3e 764f 4d3d e08d d2be 94a4 623e
00000070: 1757 5b3e fd1f 20be 8163 40be f25a ac3d
00000080: d359 c33d 270d 3cbc edca 89bd a359 15bd
00000090: 0867 ebbd 42ca 75bd 9d95 d23d 2e7b b7be
000000a0: a6d4 a83b 382c cfbd 33e6 c7bd 3c4a cfbd
000000b0: 7fdb 4ebd a5b9 8dbe e8d4 b73d 4573 4c3d
000000c0: a024 82be f9ce 4dbe 32ab c2bd 47e1 32be
000000d0: 416d f4bd 7ea2 57be afee f1bb dd2f 5d3d
000000e0: 769a 46be ae3d 13bd 4649 6f3e 3caf b9bd
000000f0: ad77 e53e f779 2dbd badb 70be 6955 bb3d
00000100: 6aa5 803e 6115 37be 97cd bbbd bf56 2cbe
00000110: f018 29be d1f9 cd3e 85ff 14be 5ae6 31bf
00000120: eb00 f33e 3785 8b3e 307b e8be e60e d43e
00000130: 211d 233f a420 5fbe cf81 08be f543 09be
00000140: 3c70 6ebd 056d 08be a336 0fbc 7488 a1bd
00000150: 06e5 213e 430b e43e 275b 25bd 35e4 283e
00000160: d4ea f0bd 159f 4dbb 9988 9ebe 37f8 ce3d
00000170: 9ba3 b4bd 05c8 7abe baa7 9abe 6215 d4bc
00000180: 2d8c 82bc 437d 44bd e416 c4bd 5f18 f0bb
00000190: 4888 e6bc 86ef 5fbe 290e 363e 9f68 043e
000001a0: de9e b4bc f1c4 0abe 0056 90bd 3a85 28be
000001b0: 245f 3cbe 9517 7fbe 88de 0cbe a943 54be
000001c0: cb79 b63c edb9 bdbd 4d9e e7bd f419 1bbe
000001d0: 6fb9 86be 265d 71be e05a 27be 2f19 1e3f
000001e0: a933 063e 4965 90bd 50c3 c93d 5568 f03e
000001f0: 89cf 483e f54e 3a3e f0ca 3dbe 5867 6dbe
00000200: 9921 843d ddff 60bd c1e7 cfbd 072d 153d
00000210: 178c 8ebe 8ae8 66be 6776 bcbd 91e7 83be
00000220: 53bc d2be ae43 9bbe 4f45 56be 1f19 aabd
00000230: 5e01 0d3e 340b 47be 7831 47bd e6af 4d3c
00000240: ea95 b7ba 4323 573d 0027 063d e9f3 973d
00000250: 2abd f3bc 4052 023e 40a3 033d 1123 f5bd
00000260: e5eb 50be 3792 97be 707f 91be 9c2a 22be
00000270: 5f0e d83c 6917 483e 34ab 0d3e a346 703c
00000280: 5bb3 283e a95f 84be a365 06be 02d4 c4bd
00000290: cfbe f3bd 843b f0bd 22bb 57be 4672 9b3e
000002a0: 6222 323e 3fdb d23d fa8c fcbc 3f5f 273e
000002b0: a10b c53d 3f9c fabd 61b1 80be f085 b0be
000002c0: 1d84 713e f837 52be 9cf4 493d 05ef 3ebe
000002d0: 2f7a 3f3e d7d1 2a3d 96ed b0be 4f41 833e
000002e0: aa6a b63e 7bb1 4cbe 3dec 9fbe e1c1 9cbe
000002f0: 5e94 cf3d b384 5bbe b1ba 52be 10ab 853e
00000300: 8d91 5cbe 7ed7 3ebe 19e1 5dbe 532b 893d
00000310: 3523 08be a0b5 72be 0ac2 f6bd 2be7 29be
00000320: 21dd c4be 3a00 6cbe 6e2f 70be 0b6e 0abd
00000330: 9c5c 01be db97 18be 43b1 443c 6960 143e
00000340: a4b5 2cbe ef49 c3bd 5ae2 a73e c45a 013f
00000350: cff7 b53e e7d3 823d f4a9 da3d 2c9f 413e
00000360: e05c 5939 763b bebd f7a0 f4bd f947 cdbd
00000370: c7f4 98be 3791 b4be 4b12 793d e6b6 f93d
00000380: 723f 503e 9712 2cbe e3ae 3bbe 20c0 b2bd
00000390: b4b7 32be d6c4 4bbd a996 27bd 16b2 203d
000003a0: 706c 14bd 3b06 9cbd 215f 9bbe e794 acbe
000003b0: 21e2 8bbe 87a0 47be a17e 18be 1618 d4bc
000003c0: 9dc5 b73c ba3a 4abe f3b5 9cbe 3e79 41be
000003d0: 4e04 73bd f858 73bd 5233 63be aca2 3dbe
000003e0: 8c59 10be ab93 d7bd 0780 26be 6078 3fbe
000003f0: 983f 103d 77b6 adbd 1271 65be 2c14 3fbb

conv3.bias f4 [64]
0.00019795257 0.00012961899 0.0007242763 -0.00041702652 -0.0001971309 -7.4098925e-06 0.0002920252 -2.2378332e-05
-0.0006985774 -0.00012806011 0.0011423915 -0.00011473139 5.917201e-05 -0.00038239287 0.00062783714 0.00014279695
0.00043728872 1.4909543e-05 -0.0003368133 -0.00028704834 7.835503e-05 -0.00014212492 -1.02183985e-05 2.083354e-05
-0.00013302974 0.000162043 0.00018671405 -0.000598961 -0.00014182585 -0.0007053727 -0.00012832985 -9.172429e-06
-0.00022137637 0.00036796217 -0.00023638934 -0.00023140415 -0.0008371597 -3.2316166e-08 0.0009950865 -2.0839983e-05
4.9833732e-05 -0.000101899 3.618243e-05 0.00015583972 0.0003000836 0.00036563852 7.75021e-05 -4.2751817e-05
0.0005680621 0.00017933566 0.00090163935 0.0002117683 3.4291344e-05 0.0005384832 -7.2692375e-05 -0.00036657957
-2.5779249e-05 -9.4903095e-05 -0.0002799881 1.6670863e-05 0.00017359189 -0.00026691036 -1.3373886e-05 -0.00011738359
00000000: 7d91 4f39 55ea 0739 5cdd 3d3a 5aa4 dab9
00000010: ecb4 4eb9 7ea2 f8b6 f51a 9939 1ab9 bbb7
00000020: bc20 37ba e047 06b9 4cbc 953a f29b f0b8
00000030: 762f 7838 e77b c8b9 7095 243a c4bb 1539
00000040: e643 e539 0024 7a37 5196 b0b9 fa7e 96b9
00000050: 8952 a438 5e07 15b9 b06f 2bb7 b0c3 ae37
00000060: e67d 0bb9 16ea 2939 acc8 4339 9803 1dba
00000070: 16b7 14b9 c3e8 38ba 4890 06b9 48e3 19b7
00000080: 4421 68b9 0ceb c039 48df 77b9 14a5 72b9
00000090: d674 5bba 00cc 0ab3 906d 823a 86d1 aeb7
000000a0: 9004 5138 9cb2 d5b8 97c2 1738 e868 2339
000000b0: 8a54 9d39 2cb3 bf39 a088 a238 6a50 33b8
000000c0: 01ea 143a 0d0c 3c39 fe5b 6c3a 1f0e 5e39
000000d0: 0dd4 0f38 ff28 0d3a 6c72 98b8 7a31 c0b9
000000e0: 8440 d8b7 b606 c7b8 5ecb 92b9 68d8 8b37
000000f0: 3806 3639 1af0 8bb9 6760 60b7 d62b f6b8

bn3.weight f4 [64]
1.1309679 0.9597919 1.5486835 1.3262918 0.89607555 1.3825454 0.86931187 0.36769992
1.590418 1.0329931 0.92044467 0.8053117 1.4456551 1.1386064 1.1484288 1.3125756
1.3661346 0.87438905 0.9420198 0.9506487 0.7191802 0.74919426 0.97245795 1.5109051
1.0662231 1.1859097 1.1681924 0.5591206 0.9645958 1.0606954 1.2193211 1.0086174
0.8743204 0.85275096 1.5475671 0.9517327 1.2392219 0.8066066 0.62507594 0.21158506
0.6707301 0.69768566 1.0711466 0.9370357 0.62539566 1.1087242 1.107124 0.30089608
0.65940565 0.73753554 1.261724 0.611639 0.7714622 0.8132931 0.4004558 0.6740546
1.0198265 1.4367996 0.98481554 1.563605 0.94772816 0.7022059 1.2147174 0.5933268
00000000: 8ec3 903f ecb4 753f 433b c63f eec3 a93f
00000010: 3565 653f 3ff7 b03f 398b 5e3f 2a43 bc3e
00000020: d192 cb3f 1e39 843f 43a2 6b3f e828 4e3f
00000030: 3a0b b93f dbbd 913f b7ff 923f 7a02 a83f
00000040: 80dd ae3f f6d7 5f3f 3628 713f b75d 733f
00000050: 321c 383f 32cb 3f3f 01f3 783f 5765 c13f
00000060: 007a 883f e4cb 973f 5487 953f 8722 0f3f
00000070: c0ef 763f dec4 873f b712 9c3f 601a 813f
00000080: 76d3 5f3f e34d 5a3f ae16 c63f c1a4 733f
00000090: d39e 9e3f c57d 4e3f fa04 203f c1a9 583e
000000a0: f8b4 2b3f 879b 323f 551b 893f 92e1 6f3f
000000b0: ee19 203f adea 8d3f 3db6 8d3f 0d0f 9a3e
000000c0: cfce 283f 21cf 3c3f 2c80 a13f 6094 1c3f
000000d0: 8c7e 453f fa33 503f 8b08 cd3e d88e 2c3f
000000e0: ad89 823f 0de9 b73f df1c 7c3f 3524 c83f
000000f0: 509e 723f c4c3 333f dc7b 9b3f 44e4 173f

bn3.bias f4 [64]
-0.5338692 -0.28005052 -0.57294834 -0.5291754 -0.21139702 -0.43345705 -0.43511766 -0.28978845
-0.6963157 -0.07807089 -0.4206853 -0.33374336 -0.26330087 -0.12668307 -0.31160104 -0.2484656
-0.46802703 -0.24999446 -0.2107178 -0.16725954 -0.26300424 -0.15786228 -0.17409094 -0.38149875
-0.3086842 -0.054860294 -0.17125969 0.102736525 -0.53567034 -0.17666663 -0.45984045 -0.48256338
-0.11718423 -0.49351412 -0.40045756 0.046706706 -0.38037625 -0.8317771 -0.11872302 0.16560277
-0.12534288 0.37172437 -0.16238742 -0.4866364 -0.11483122 -0.42487675 -0.31002286 -0.1511062
0.07736324 -0.20281368 -0.60888857 -0.29845235 0.113544285 0.0024838746 -0.6405278 -0.06626649
-0.262816 -0.852078 0.16691053 -0.5830169 -0.1311031 0.096250646 -0.5057069 0.6442787
00000000: a7ab 08bf c862 8fbe beac 12bf 0a78 07bf
00000010: 7678 58be 15ee ddbe bec7 debe 275f 94be
00000020: bf41 32bf a1e3 9fbd 1064 d7be 69e0 aabe
00000030: 5fcf 86be 35b9 01be 2c8a 9fbe c46d 7ebe
00000040: 3da1 efbe 8cfe 7fbe 68c6 57be 1646 2bbe
00000050: 7ea8 86be a6a6 21be e544 32be ce53 c3be
00000060: db0b 9ebe 30b5 60bd b35e 2fbe 8767 d23d
00000070: b121 09bf 19e8 34be 3570 ebbe 8c12 f7be
00000080: 49fe efbd e2ad fcbe c608 cdbe 884f 3f3d
00000090: adc0 c2be 58ef 54bf 0e25 f3bd c693 293e
000000a0: e259 00be a852 be3e e348 26be 6828 f9be
000000b0: a12c ebbd 7289 d9be 51bb 9ebe 95bb 1abe
000000c0: 9e70 9e3d 64ae 4fbe 1fe0 1bbf bfce 98be
000000d0: e889 e83d 80c8 223b a1f9 23bf bab6 87bd
000000e0: d28f 86be c921 5abf 98ea 2a3e 9840 15bf
000000f0: e43f 06be 0f1f c53d 0276 01bf 73ef 243f

bn3.running_mean f4 [64]
-1.8981296 -1.0153714 -2.612802 0.12571308 -3.0879965 -0.10304865 -0.8651724 -2.7950268
0.010163557 -1.8576841 0.39824358 -1.5927006 -1.5459695 -1.238784 -0.975621 -0.83954763
-1.0434321 0.837032 -1.3537152 -1.1745477 -2.3573718 -2.666711 -1.7124834 -1.4469283
-1.6690521 -2.135887 -1.6902974 -1.5450593 1.1638889 -2.5914419 -1.1951966 1.5267451
-1.6365443 -0.67462957 -1.0559995 -0.42708153 -0.8753196 -3.3992927 -4.19193 -0.16857435
-4.0340743 -3.7124193 -0.25021124 -1.4270724 -1.913797 0.13478723 -2.5568855 -0.7904554
-4.35053 -0.20228426 -0.16759479 -0.96571416 -1.8038247 -1.2535131 4.027431 -0.9771712
-0.68641585 1.6251886 -1.7069722 -1.043066 -0.44203946 -1.5725899 -2.5276015 -1.5329127
00000000: e9f5 f2bf b1f7 81bf 2638 27c0 eeba 003e
00000010: bca1 45c0 2c0b d3bd f07b 5dbf b8e1 32c0
00000020: 0c85 263c 98c8 edbf 95e6 cb3e 9ddd cbbf
00000030: 54e2 c5bf 7990 9ebf 4cc2 79bf 98ec 56bf
00000040: 2f8f 85bf bb47 563f 8a46 adbf 9457 96bf
00000050: 2edf 16c0 65ab 2ac0 a832 dbbf f234 b9bf
00000060: 80a3 d5bf 5fb2 08c0 aa5b d8bf 81c4 c5bf
00000070: 50fa 943f 2fda 25c0 34fc 98bf 626c c33f
00000080: 497a d1bf 86b4 2cbf fe2a 87bf 6eaa dabe
00000090: f214 60bf 038e 59c0 4a24 86c0 c19e 2cbe
000000a0: 2317 81c0 4798 6dc0 b01b 80be 4faa b6bf
000000b0: 4df7 f4bf aa05 0a3e 03a4 23c0 495b 4abf
000000c0: 8b37 8bc0 9b23 4fbe f89d 2bbe 0b39 77bf
000000d0: bae3 e6bf 1e73 a0bf b7e0 8040 e427 7abf
000000e0: f3b8 2fbf 2e06 d03f 117e dabf 3083 85bf
000000f0: ff52 e2be a04a c9bf 39c4 21c0 7c36 c4bf

bn3.running_var f4 [64]
2.0118842 3.3102188 2.6664248 3.6227484 3.0693893 4.152951 1.4577869 3.8658297
6.5447 4.1382847 3.4613745 4.4807234 4.391631 4.784463 4.8416104 3.627229
1.8508446 3.0809748 2.915419 3.4497168 4.0573597 3.1196218 4.966433 6.604521
3.705878 4.911007 3.6188836 2.924969 2.4370487 1.8129468 4.4641604 3.2296221
2.2558985 1.8996652 7.351798 2.55819 3.0489335 1.7372422 2.3722265 1.0925565
2.2959702 2.8150675 5.4666524 2.7522225 2.8370187 2.5142453 4.2493043 1.5500292
3.8464744 3.3984318 3.1547267 1.9012433 2.660042 3.3768144 1.2593054 1.357924
4.387911 3.6986039 3.0887163 2.2652276 1.7419919 1.1857332 4.0377235 5.05862
00000000: b6c2 0040 a0da 5340 b4a6 2a40 1cdb 6740
00000010: e070 4440 f9e4 8440 c398 ba3f c169 7740
00000020: 2f6e d140 d46c 8440 2987 5d40 1662 8f40
00000030: 3e88 8c40 521a 9940 79ee 9a40 8524 6840
00000040: 7ae8 ec3f b12e 4540 3a96 3a40 29c8 5c40
00000050: e4d5 8140 e2a7 4740 05ed 9e40 3c58 d340
00000060: 1b2d 6d40 f826 9d40 ca9b 6740 b132 3b40
00000070: 9bf8 1b40 a40e e83f 67da 8e40 21b2 4e40
00000080: a460 1040 3b28 f33f ee41 eb40 63b9 2340
00000090: ba21 4340 f45d de3f 8fd2 1740 e4d8 8b3f
000000a0: 2df1 1240 112a 3440 d1ee ae40 6a24 3040
000000b0: b791 3540 65e9 2040 4dfa 8740 5b67 c63f
000000c0: a32c 7640 e87f 5940 0be7 4940 f15b f33f
000000d0: 213e 2a40 ba1d 5840 eb30 a13f 74d0 ad3f
000000e0: c469 8c40 edb5 6c40 87ad 4540 7df9 1040
000000f0: 97f9 de3f 1bc6 973f 0835 8140 37e0 a140

conv4.weight f4 [64, 64, 3]
0.18833163 0.46125627 0.092578955 0.17782883 0.042914025 -0.04555991 0.03407532 -0.4277073
-0.16129702 0.17739029 0.22779119 0.15309718 -0.02442185 0.037775483 -0.08509113 0.00011002133
-0.15810956 -0.30400136 0.32049537 0.13405733 0.5010532 0.03434879 0.1871444 -0.2483047
0.10629798 -0.032047536 0.0047067204 0.12466513 0.28482446 0.36003533 0.4750583 0.3767101
0.2523298 -0.0617102 -0.13471639 0.047003403 0.50013494 0.14112924 0.31462753 -0.09695494
0.028780766 -0.17803124 0.14657804 0.010349056 0.0032979678 0.036564678 0.076592006 -0.49938077
-0.11758657 0.27929658 0.101711944 -0.078543596 -0.069392234 -0.12167697 0.026688224 -0.10410471
0.11314816 -0.46006858 -0.13861287 0.0967011 -0.12197714 0.21739553 -0.010423039 0.029770004
-0.13226669 0.030226428 -0.20552514 0.13063163 0.25015616 -0.19947834 -0.089500204 0.20829603
0.11719525 0.15516962 0.07981378 -0.29806796 -0.28094432 -0.47643366 0.4738802 0.0018448076
-0.05616076 -0.02541776 0.015960723 -0.1705046 -0.1955928 -0.09103632 -0.16477719 0.24861322
-0.050046958 0.037026715 0.44452667 0.1400395 -0.19765472 -0.16103977 -0.0940826 -0.16486551
-0.04991077 -0.07288945 -0.09604807 -0.048062295 -0.060979236 -0.095226 -0.24547547 0.0058785053
0.22216219 0.28267822 0.073236 0.1014785 -0.12760425 -0.03213422 -0.14776525 0.2515682
-0.25012234 -0.5294304 -0.102420606 0.16862212 0.0194105 0.03257498 0.061251268 -0.2392885
-0.31688344 0.16790691 -0.20530352 -0.050432988 0.111198485 0.061770074 0.29202133 0.3029935
-0.004998426 0.2869368 0.61159116 0.07772954 -0.22874418 -0.07723694 -0.077637345 0.15813583
0.5705839 0.31070742 -0.074094504 0.02779653 0.1406699 -0.008697198 0.23428036 -0.17195836
-0.2064572 0.16773483 -0.37290415 0.04756397 -0.2654635 -0.46570915 -0.113673225 -0.05050123
0.13066144 0.16120477 0.29021937 0.103297085 -0.008476845 0.13729055 -0.1428692 0.076234944
-0.09888942 0.06401152 -0.06967667 0.024840135 -0.21217045 0.25320727 0.34490353 0.13545127
-0.08838635 -0.045454483 -0.4102617 0.36000246 0.029038 -0.21014087 -0.38156664 -0.04737083
-0.3657367 0.37057674 0.2519215 -0.16093601 -0.2499566 0.019748965 0.12257087 -0.19723004
-0.026601588 -0.012170515 -0.16865687 -0.09449157 -0.11657828 0.35931838 -0.05037565 0.05734895
0.20347886 0.111761846 -0.08025088 -0.0543437 -0.019011576 -0.088120565 0.14262168 0.25325543
0.60202926 0.2006912 -0.024072286 -0.26646465 0.09120535 -0.3700603 -0.36300975 -0.19933091
0.16257994 0.23240903 -0.1897804 -0.07224261 -0.11096584 0.185999 0.14497653 -0.094051294
0.23494668 -0.30433214 -0.2947102 0.042415977 0.29604614 0.10156866 0.0918383 -0.16372135
-0.12211147 0.2725297 0.12793796 -0.03168647 0.2147068 0.2781549 0.3264098 -0.11830238
0.14260577 0.19409645 0.14638951 0.15825516 0.16440901 -0.16181396 -0.059621282 -0.02141312
-0.028057871 -0.026814757 -0.7787222 0.09775812 -0.27125114 -0.302003 0.4482458 -0.028211834
0.05322852 -0.11262423 -0.01819381 -0.40581128 0.48999524 0.4358972 -0.28007406 0.43475914
00000000: 02da 403e c829 ec3e 099a bd3d c318 363e
00000010: 9ec6 2f3d 079d 3abd 9092 0b3d 74fc dabe
00000020: 0c2b 25be cda5 353e 1842 693e 82c5 1c3e
00000030: 5510 c8bc 77ba 1a3d 4244 aebd 40bb e638
00000040: 79e7 21be 11a6 9bbe f817 a43e 5346 093e
00000050: 0645 003f 51b1 0c3d c8a2 3f3e 9643 7ebe
00000060: c1b2 d93d 4744 03bd d53a 9a3b 6f50 ff3d
00000070: 83d4 913e 8d56 b83e d73a f33e 25e0 c03e
00000080: 5f31 813e d6c3 7cbd 18f3 09be a486 403d
00000090: d808 003f 2f84 103e dc16 a13e 5090 c6bd
000000a0: a4c5 eb3c d24d 36be 8e18 163e 168f 293c
000000b0: b822 583b d8c4 153d 45dc 9c3d d6ae ffbe
000000c0: 3ad1 f0bd f6ff 8e3e 5a4e d03d 77db a0bd
000000d0: 841d 8ebd c631 f9bd 43a1 da3c da34 d5bd
000000e0: 39ba e73d 1c8e ebbe 88f0 0dbe 3a0b c63d
000000f0: 27cf f9bd ef9c 5e3e 65c5 2abc 39e0 f33c
00000100: eb70 07be 6a9d f73c 2f75 52be 4cc4 053e
00000110: 7814 803e 0d44 4cbe e24b b7bd 8e4b 553e
00000120: 1004 f03d c9e4 1e3e 6875 a33d 5d9c 98be
00000130: efd7 8fbe 1def f3be 6da0 f23e 79cd f13a
00000140: d308 66bd e838 d0bc 10c0 823c c298 2ebe
00000150: 7b49 48be 4071 babd 5abb 28be 7794 7e3e
00000160: 0afe 4cbd 53a9 173d 0099 e33e 8466 0f3e
00000170: 0066 4abe 9ce7 24be 61ae c0bd 81d2 28be
00000180: 3c6f 4cbd 1047 95bd dab4 c4bd f8dc 44bd
00000190: 5dc5 79bd d905 c3bd ec5d 7bbe 7aa0 c03b
000001a0: 7c7e 633e 33bb 903e c2fc 953d f6d3 cf3d
000001b0: b0aa 02be 2c9f 03bd c64f 17be 8ccd 803e
000001c0: 0910 80be c088 07bf e5c1 d1bd 47ab 2c3e
000001d0: c502 9f3c 586d 053d 9ce2 7a3d 0b08 75be
000001e0: 8c3e a2be caef 2b3e 163b 52be d292 4ebd
000001f0: 08bc e33d 9e02 7d3d d283 953e f721 9b3e
00000200: d6c9 a3bb 61e9 923e 3d91 1c3f aa30 9f3d
00000210: ea3b 6abe 672e 9ebd 5400 9fbd 5cee 213e
00000220: c911 123f 0b15 9f3e dcbe 97bd 8cb5 e33c
00000230: c50b 103e b17e 0ebc 31e7 6f3e da15 30be
00000240: 8469 53be aec2 2b3e 4bed bebe 70d2 423d
00000250: d5ea 87be 6e71 eebe 82cd e8bd 61da 4ebd
00000260: 1dcc 053e dd12 253e a297 943e 6c8d d33d
00000270: 77e2 0abc e595 0c3e 4e4c 12be 1121 9c3d
00000280: 8986 cabd 7918 833d a4b2 8ebd 8a7d cb3c
00000290: 3643 59be 62a4 813e 3297 b03e bdb3 0a3e
000002a0: e703 b5bd 7b2e 3abd d20d d2be 3e52 b83e
000002b0: 1ae1 ed3c 2b2f 57be b45c c3be ea07 42bd
000002c0: d741 bbbe 3cbc bd3e dbfb 803e 69cc 24be
000002d0: 9ff4 7fbe 95c8 a13c 7006 fb3d acf6 49be
000002e0: 93eb d9bc d766 47bc 63b4 2cbe cc84 c1bd
000002f0: 98c0 eebd 94f8 b73e b356 4ebd bce6 6a3d
00000300: c35c 503e 65e3 e43d 935a a4bd 8097 5ebd
00000310: 2abe 9bbc 8e78 b4bd 6b0b 123e b2aa 813e
00000320: 971e 1a3f fe81 4d3e 3e33 c5bc 0e6e 88be
00000330: dfc9 ba3d 8b78 bdbe 6adc b9be 671d 4cbe
00000340: 5b7b 263e a2fc 6d3e cb55 42be eff3 93bd
00000350: 0f42 e3bd 8676 3e3e ba74 143e f79d c0bd
00000360: dd95 703e 6cd1 9bbe 41e4 96be 60bc 2d3d
00000370: 5c93 973e 3b03 d03d b815 bc3d 92a6 27be
00000380: 9415 fabd 0389 8b3e 2b02 033e acc9 01bd
00000390: 19dc 5b3e 526a 8e3e 2f1f a73e 8548 f2bd
000003a0: 3f07 123e 38c1 463e 22e7 153e a40d 223e
000003b0: d65a 283e 8fb2 25be 7235 74bd 916a afbc
000003c0: 9fd9 e5bc 9faa dbbc 575a 47bf 6935 c83d
000003d0: 6ee1 8abe 23a0 9abe 7980 e53e 811c e7bc
000003e0: 2606 5a3d 88a7 e6bd 2f0b 95bc 7fc6 cfbe
000003f0: a8e0 fa3e eb2d df3e de65 8fbe c098 de3e

conv4.bias f4 [64]
1.3822386e-05 -2.4614941e-05 -3.3198103e-05 4.3904125e-05 -5.1518573e-06 7.332714e-05 -1.1055818e-08 -5.732017e-06
1.0378377e-05 7.10828e-05 2.6147201e-05 8.599419e-05 -2.735612e-05 -0.00011368227 3.3948727e-05 3.1728658e-05
-1.9444065e-05 3.701389e-05 5.41838e-06 -1.9799067e-05 -3.4940351e-06 4.5193374e-06 -1.5017356e-05 3.1105505e-05
4.143036e-06 -3.4969664e-05 -4.2001484e-06 9.98909e-07 -1.1523722e-05 5.322636e-06 2.2997812e-05 3.3502765e-05
4.291219e-06 -4.00747e-05 3.721005e-05 -6.884442e-05 -2.2392876e-05 -3.537798e-05 7.5282396e-06 2.0224308e-05
1.0274056e-05 2.9882962e-05 2.9775167e-05 8.219118e-06 -3.3999313e-05 3.328482e-05 -3.3963253e-05 -0.00011909848
-9.185662e-05 -8.146713e-05 -8.049217e-05 7.51394e-05 -0.00010584644 -1.281385e-05 2.1211694e-05 6.227684e-05
5.4714274e-05 0.00013465692 5.4829034e-06 7.60697e-06 4.61558e-06 6.900675e-05 -0.00013600505 3.9929637e-07
00000000: b2e6 6737 2f7c ceb7 313e 0bb8 b225 3838
00000010: 1ede acb6 35c7 9938 00f0 3db2 a755 c0b6
00000020: ca1e 2e37 4a12 9538 b056 db37 c757 b438
00000030: d27a e5b7 b468 eeb8 2b64 0e38 6314 0538
00000040: d01b a3b7 5d3f 1b38 88cf b536 2c16 a6b7
00000050: 117b 6ab6 d0a4 9736 0ef3 7bb7 4877 0238
00000060: 6904 8b36 64ac 12b8 00ef 8cb6 4012 8635
00000070: 0256 41b7 1899 b236 6deb c037 5285 0c38
00000080: 4afd 8f36 e215 28b8 fd11 1c38 9160 90b8
00000090: 56d8 bbb7 d162 14b8 169b fc36 5fa7 a937
000000a0: bc5e 2c37 2cad fa37 afc5 f937 d8e4 0937
000000b0: 7c9a 0eb8 4e9b 0b38 c473 0eb8 82c4 f9b8
000000c0: 26a3 c0b8 55d9 aab8 e8cd a8b8 2994 9d38
000000d0: e0f9 ddb8 11fb 56b7 c4ef b137 a09a 8238
000000e0: 017d 6538 b132 0d39 c8f9 b736 603f ff36
000000f0: 88df 9a36 b8b7 9038 949c 0eb9 e05e d634

bn4.weight f4 [64]
1.3604997 1.3672829 1.4575489 1.4628924 1.3132591 1.513228 1.3182156 1.4587798
0.7154018 1.5002751 1.52126 1.2332572 1.4178399 1.0967039 1.5050935 1.4461926
1.5221657 1.4394838 1.8018442 1.5721806 1.5839704 1.5322751 1.669888 1.4448662
1.322343 0.8468242 1.3169578 1.2776613 1.5726913 1.299374 1.7942909 1.0422019
1.3177699 1.2618419 1.597371 1.5620954 1.5513272 1.3324026 1.0213006 1.1603762
1.266933 1.3929354 1.2927637 1.0589885 1.1215882 1.3368903 1.6133215 1.719791
1.782656 1.7685772 1.0871223 1.4045985 1.6521413 1.2900956 1.0945213 1.1956601
1.3681742 1.6405526 1.8164294 1.1702502 1.1987201 1.0254966 1.4096748 1.1114281
00000000: db24 ae3f 2003 af3f f690 ba3f 0f40 bb3f
00000010: e018 a83f 75b1 c13f 4abb a83f 4cb9 ba3f
00000020: 9324 373f 0409 c03f a6b8 c23f 5fdb 9d3f
00000030: c77b b53f cb60 8c3f e7a6 c03f d71c b93f
00000040: 53d6 c23f 0141 b83f d5a2 e63f 373d c93f
00000050: 8bbf ca3f 9721 c43f e4be d53f 60f1 b83f
00000060: 8942 a93f 79c9 583f 1392 a83f 688a a33f
00000070: f34d c93f e351 a63f 53ab e53f df66 853f
00000080: afac a83f 0984 a13f a776 cc3f bef2 c73f
00000090: e491 c63f 2b8c aa3f fab9 823f 3587 943f
000000a0: dc2a a23f b54b b23f 4879 a53f ef8c 873f
000000b0: 3490 8f3f 391f ab3f 5281 ce3f 1d22 dc3f
000000c0: 122e e43f bd60 e23f d326 8b3f e2c9 b33f
000000d0: 5e79 d33f da21 a53f 4619 8c3f 640b 993f
000000e0: 5520 af3f a1fd d13f c280 e83f c2ca 953f
000000f0: a96f 993f 7943 833f 3970 b43f 4743 8e3f

bn4.bias f4 [64]
-0.17634292 -0.43257985 0.08478864 -0.46157676 -0.3124591 -0.0042981356 -0.120800614 -0.39945
-0.5124314 -0.05576116 0.15853146 -0.41468242 -0.47204268 -0.34010097 -0.49589145 -0.42035905
-0.3757724 -0.38986975 -0.40731627 -0.068740755 -0.14676562 -0.18857269 -0.43809763 -0.5678678
-0.43484813 -0.024623074 -0.56440437 0.027003456 -0.112695046 -0.5074669 -0.27166653 -0.3144207
-0.5728079 -0.43806195 -0.28149503 -0.16860463 0.04009671 -0.13021041 -0.15021266 -0.2514325
-0.53318745 -0.2597107 -0.4856984 -0.3058338 -0.52365005 -0.3962807 -0.048817832 -0.18092296
-0.4319446 -0.12865266 -0.5213767 -0.47971502 -0.24048278 -0.4151567 -0.41878933 -0.5307214
-0.4870773 0.15442896 -0.1339818 -0.46677074 -0.58199495 -0.33283108 -0.71546745 -0.44816008
00000000: 3d93 34be 1b7b ddbe aba5 ad3d ca53 ecbe
00000010: a4fa 9fbe 60d7 8cbb 5066 f7bd b684 ccbe
00000020: b42e 03bf d065 64bd 1256 223e 4151 d4be
00000030: 94af f1be b721 aebe 7ce5 fdbe 4d39 d7be
00000040: 3d65 c0be 029d c7be c28b d0be f4c7 8cbd
00000050: ba49 16be 3319 41be 554e e0be c95f 11bf
00000060: 6aa4 debe 54b6 c9bc ce7c 10bf 5a36 dd3c
00000070: a9cc e6bd 5ae9 01bf e017 8bbe c0fb a0be
00000080: 8aa3 12bf a849 e0be 1e20 90be b1a6 2cbe
00000090: 733c 243d e155 05be 59d1 19be c3bb 80be
000000a0: f97e 08bf cdf8 84be 76ad f8be 3f96 9cbe
000000b0: ee0d 06bf 4ee5 cabe 35f5 47bd de43 39be
000000c0: d827 ddbe 86bd 03be f278 05bf 359d f5be
000000d0: 1e41 76be 6b8f d4be 8e6b d6be 5cdd 07bf
000000e0: 3262 f9be a022 1e3e 8632 09be 93fc eebe
000000f0: 9ffd 14bf d668 aabe e028 37bf 3d75 e5be

bn4.running_mean f4 [64]
0.41708246 0.32199383 0.21954899 -0.67669356 0.6347093 -1.4915483 0.9824573 -1.242523
-0.29575688 3.3774395 1.939953 -0.29938766 0.39364037 -2.350775 1.3821332 -0.39502913
-0.17710443 -0.55086577 -0.8648842 1.1502546 -0.24144125 -1.1530517 -0.1575651 -0.033085003
1.0148389 1.4151216 -0.2564101 -0.673702 2.4614503 1.6319392 -0.35743684 -0.7761122
-0.7369008 -2.2942877 1.9757167 -0.7338913 0.951772 2.8780022 -0.82771564 -0.10673099
-1.2143674 -0.08385257 -0.16475226 -1.2954731 0.39425996 0.5106944 1.2946187 0.96002924
0.14530392 1.5481851 -0.008092119 0.32290047 1.4148681 0.21422471 -1.4410938 -0.99538565
1.6768744 1.9056774 -0.44930416 1.0232127 -0.54911363 -0.09788476 -0.14661017 0.42545423
00000000: d58b d53e 60dc a43e 73d1 603e ca3b 2dbf
00000010: 4f7c 223f 0eeb bebf 5282 7b3f fe0a 9fbf
00000020: 726d 97be f827 5840 6150 f83f 5749 99be
00000030: 3b8b c93e 1973 16c0 bee9 b03f 4241 cabe
00000040: dd5a 35be 8a05 0dbf 0d69 5dbf 8b3b 933f
00000050: 603c 77be 3397 93bf bf58 21be 2484 07bd
00000060: 3ee6 813f b422 b53f 2f48 83be bc77 2cbf
00000070: 6788 1d40 62e3 d03f f601 b7be 4aaf 46bf
00000080: 88a5 3cbf 9cd5 12c0 49e4 fc3f 4de0 3bbf
00000090: 54a7 733f 3031 3840 2ce5 53bf c795 dabd
000000a0: 6470 9bbf e5ba abbd d1b4 28be 10d2 a5bf
000000b0: 71dc c93e debc 023f 11b6 a53f 7ac4 753f
000000c0: 8dca 143e ee2a c63f cf94 04bc 3653 a53e
000000d0: 661a b53f b95d 5b3e c375 b8bf 98d1 7ebf
000000e0: d2a3 d63f 3ded f33f 320b e6be a2f8 823f
000000f0: b692 0cbf ce77 c8bd fa20 16be 23d5 d93e

bn4.running_var f4 [64]
2.3448472 2.6410286 2.8586366 2.625061 2.405138 3.3623078 2.1537523 2.8493228
1.9376343 2.164126 2.6131332 4.6634946 3.7446592 3.1261847 2.5033488 3.5031936
2.8485491 2.9304984 3.409329 3.442975 3.6290312 2.472348 2.5460143 3.273303
2.6933815 1.9427224 4.547399 2.4900377 4.100981 2.62123 4.8723564 1.9555976
1.6164021 2.3101096 1.9028375 2.3371613 3.6639674 2.3795435 1.8928312 3.1733465
3.7952726 3.7503648 3.1496313 4.0053334 1.628055 2.5886292 4.1661434 4.136276
3.0940945 2.6876216 1.9891741 1.9053836 3.3140569 2.652799 2.382802 3.1767206
2.6939318 2.515519 3.481992 2.8748667 2.6953895 2.9570477 4.717113 2.4805596
00000000: fa11 1640 9d06 2940 e7f3 3640 0001 2840
00000010: c8ed 1940 0d30 5740 14d7 0940 4e5b 3640
00000020: 6704 f83f 0a81 0a40 933d 2740 593b 9540
00000030: 7fa8 6f40 6913 4840 de36 2040 5334 6040
00000040: a14e 3640 498d 3b40 7232 5a40 b459 5c40
00000050: 0c42 6840 f33a 1e40 e6f1 2240 cc7d 5140
00000060: 5d60 2c40 21ab f83f 4b84 9140 c75c 1f40
00000070: 3d3b 8340 3bc2 2740 58ea 9b40 0651 fa3f
00000080: 44e6 ce3f d6d8 1340 2e90 f33f 0d94 1540
00000090: 717e 6a40 714a 1840 4b48 f23f 1c18 4b40
000000a0: bfe5 7240 fa05 7040 8f93 4940 b12b 8040
000000b0: 1b64 d03f 1aac 2540 0c51 8540 5f5c 8440
000000c0: a505 4640 fe01 2c40 429d fe3f 9ce3 f33f
000000d0: 8219 5440 75c7 2940 d47f 1840 644f 4b40
000000e0: 6169 2c40 43fe 2040 f5d8 5e40 d1fd 3740
000000f0: 4381 2c40 4540 3d40 97f2 9640 7dc1 1e40
